train: 11170 val: 4900 test: 48910
Namespace(curriculum=True, dec_layers=6, dropout=0.1, emb_dim=128, enc_layers=6, epochs=1000, epochs_eval=100, hid_dim=128, nhead=8, output_dir='outputs/', perception=True, perception_pretrain='data/perception-pretrain/model.pth.tar_78.2_match', resume=None, seed=0, semantics=False, seq2seq='TRAN', syntax=False)
NeuralArithmetic(
  (embedding_in): EmbeddingIn(
    (embedding): Embedding(19, 128)
  )
  (seq2seq): TransformerModel(
    (enc_pos_embedding): LearnedPositionalEncoding(
      (dropout): Dropout(p=0.1, inplace=False)
      (pe): Embedding(100, 128)
    )
    (dec_pos_embedding): LearnedPositionalEncoding(
      (dropout): Dropout(p=0.1, inplace=False)
      (pe): Embedding(100, 128)
    )
    (transformer): Transformer(
      (encoder): TransformerEncoder(
        (layers): ModuleList(
          (0): TransformerEncoderLayer(
            (self_attn): MultiheadAttention(
              (out_proj): _LinearWithBias(in_features=128, out_features=128, bias=True)
            )
            (linear1): Linear(in_features=128, out_features=128, bias=True)
            (dropout): Dropout(p=0.1, inplace=False)
            (linear2): Linear(in_features=128, out_features=128, bias=True)
            (norm1): LayerNorm((128,), eps=1e-05, elementwise_affine=True)
            (norm2): LayerNorm((128,), eps=1e-05, elementwise_affine=True)
            (dropout1): Dropout(p=0.1, inplace=False)
            (dropout2): Dropout(p=0.1, inplace=False)
          )
          (1): TransformerEncoderLayer(
            (self_attn): MultiheadAttention(
              (out_proj): _LinearWithBias(in_features=128, out_features=128, bias=True)
            )
            (linear1): Linear(in_features=128, out_features=128, bias=True)
            (dropout): Dropout(p=0.1, inplace=False)
            (linear2): Linear(in_features=128, out_features=128, bias=True)
            (norm1): LayerNorm((128,), eps=1e-05, elementwise_affine=True)
            (norm2): LayerNorm((128,), eps=1e-05, elementwise_affine=True)
            (dropout1): Dropout(p=0.1, inplace=False)
            (dropout2): Dropout(p=0.1, inplace=False)
          )
          (2): TransformerEncoderLayer(
            (self_attn): MultiheadAttention(
              (out_proj): _LinearWithBias(in_features=128, out_features=128, bias=True)
            )
            (linear1): Linear(in_features=128, out_features=128, bias=True)
            (dropout): Dropout(p=0.1, inplace=False)
            (linear2): Linear(in_features=128, out_features=128, bias=True)
            (norm1): LayerNorm((128,), eps=1e-05, elementwise_affine=True)
            (norm2): LayerNorm((128,), eps=1e-05, elementwise_affine=True)
            (dropout1): Dropout(p=0.1, inplace=False)
            (dropout2): Dropout(p=0.1, inplace=False)
          )
          (3): TransformerEncoderLayer(
            (self_attn): MultiheadAttention(
              (out_proj): _LinearWithBias(in_features=128, out_features=128, bias=True)
            )
            (linear1): Linear(in_features=128, out_features=128, bias=True)
            (dropout): Dropout(p=0.1, inplace=False)
            (linear2): Linear(in_features=128, out_features=128, bias=True)
            (norm1): LayerNorm((128,), eps=1e-05, elementwise_affine=True)
            (norm2): LayerNorm((128,), eps=1e-05, elementwise_affine=True)
            (dropout1): Dropout(p=0.1, inplace=False)
            (dropout2): Dropout(p=0.1, inplace=False)
          )
          (4): TransformerEncoderLayer(
            (self_attn): MultiheadAttention(
              (out_proj): _LinearWithBias(in_features=128, out_features=128, bias=True)
            )
            (linear1): Linear(in_features=128, out_features=128, bias=True)
            (dropout): Dropout(p=0.1, inplace=False)
            (linear2): Linear(in_features=128, out_features=128, bias=True)
            (norm1): LayerNorm((128,), eps=1e-05, elementwise_affine=True)
            (norm2): LayerNorm((128,), eps=1e-05, elementwise_affine=True)
            (dropout1): Dropout(p=0.1, inplace=False)
            (dropout2): Dropout(p=0.1, inplace=False)
          )
          (5): TransformerEncoderLayer(
            (self_attn): MultiheadAttention(
              (out_proj): _LinearWithBias(in_features=128, out_features=128, bias=True)
            )
            (linear1): Linear(in_features=128, out_features=128, bias=True)
            (dropout): Dropout(p=0.1, inplace=False)
            (linear2): Linear(in_features=128, out_features=128, bias=True)
            (norm1): LayerNorm((128,), eps=1e-05, elementwise_affine=True)
            (norm2): LayerNorm((128,), eps=1e-05, elementwise_affine=True)
            (dropout1): Dropout(p=0.1, inplace=False)
            (dropout2): Dropout(p=0.1, inplace=False)
          )
        )
        (norm): LayerNorm((128,), eps=1e-05, elementwise_affine=True)
      )
      (decoder): TransformerDecoder(
        (layers): ModuleList(
          (0): TransformerDecoderLayer(
            (self_attn): MultiheadAttention(
              (out_proj): _LinearWithBias(in_features=128, out_features=128, bias=True)
            )
            (multihead_attn): MultiheadAttention(
              (out_proj): _LinearWithBias(in_features=128, out_features=128, bias=True)
            )
            (linear1): Linear(in_features=128, out_features=128, bias=True)
            (dropout): Dropout(p=0.1, inplace=False)
            (linear2): Linear(in_features=128, out_features=128, bias=True)
            (norm1): LayerNorm((128,), eps=1e-05, elementwise_affine=True)
            (norm2): LayerNorm((128,), eps=1e-05, elementwise_affine=True)
            (norm3): LayerNorm((128,), eps=1e-05, elementwise_affine=True)
            (dropout1): Dropout(p=0.1, inplace=False)
            (dropout2): Dropout(p=0.1, inplace=False)
            (dropout3): Dropout(p=0.1, inplace=False)
          )
          (1): TransformerDecoderLayer(
            (self_attn): MultiheadAttention(
              (out_proj): _LinearWithBias(in_features=128, out_features=128, bias=True)
            )
            (multihead_attn): MultiheadAttention(
              (out_proj): _LinearWithBias(in_features=128, out_features=128, bias=True)
            )
            (linear1): Linear(in_features=128, out_features=128, bias=True)
            (dropout): Dropout(p=0.1, inplace=False)
            (linear2): Linear(in_features=128, out_features=128, bias=True)
            (norm1): LayerNorm((128,), eps=1e-05, elementwise_affine=True)
            (norm2): LayerNorm((128,), eps=1e-05, elementwise_affine=True)
            (norm3): LayerNorm((128,), eps=1e-05, elementwise_affine=True)
            (dropout1): Dropout(p=0.1, inplace=False)
            (dropout2): Dropout(p=0.1, inplace=False)
            (dropout3): Dropout(p=0.1, inplace=False)
          )
          (2): TransformerDecoderLayer(
            (self_attn): MultiheadAttention(
              (out_proj): _LinearWithBias(in_features=128, out_features=128, bias=True)
            )
            (multihead_attn): MultiheadAttention(
              (out_proj): _LinearWithBias(in_features=128, out_features=128, bias=True)
            )
            (linear1): Linear(in_features=128, out_features=128, bias=True)
            (dropout): Dropout(p=0.1, inplace=False)
            (linear2): Linear(in_features=128, out_features=128, bias=True)
            (norm1): LayerNorm((128,), eps=1e-05, elementwise_affine=True)
            (norm2): LayerNorm((128,), eps=1e-05, elementwise_affine=True)
            (norm3): LayerNorm((128,), eps=1e-05, elementwise_affine=True)
            (dropout1): Dropout(p=0.1, inplace=False)
            (dropout2): Dropout(p=0.1, inplace=False)
            (dropout3): Dropout(p=0.1, inplace=False)
          )
          (3): TransformerDecoderLayer(
            (self_attn): MultiheadAttention(
              (out_proj): _LinearWithBias(in_features=128, out_features=128, bias=True)
            )
            (multihead_attn): MultiheadAttention(
              (out_proj): _LinearWithBias(in_features=128, out_features=128, bias=True)
            )
            (linear1): Linear(in_features=128, out_features=128, bias=True)
            (dropout): Dropout(p=0.1, inplace=False)
            (linear2): Linear(in_features=128, out_features=128, bias=True)
            (norm1): LayerNorm((128,), eps=1e-05, elementwise_affine=True)
            (norm2): LayerNorm((128,), eps=1e-05, elementwise_affine=True)
            (norm3): LayerNorm((128,), eps=1e-05, elementwise_affine=True)
            (dropout1): Dropout(p=0.1, inplace=False)
            (dropout2): Dropout(p=0.1, inplace=False)
            (dropout3): Dropout(p=0.1, inplace=False)
          )
          (4): TransformerDecoderLayer(
            (self_attn): MultiheadAttention(
              (out_proj): _LinearWithBias(in_features=128, out_features=128, bias=True)
            )
            (multihead_attn): MultiheadAttention(
              (out_proj): _LinearWithBias(in_features=128, out_features=128, bias=True)
            )
            (linear1): Linear(in_features=128, out_features=128, bias=True)
            (dropout): Dropout(p=0.1, inplace=False)
            (linear2): Linear(in_features=128, out_features=128, bias=True)
            (norm1): LayerNorm((128,), eps=1e-05, elementwise_affine=True)
            (norm2): LayerNorm((128,), eps=1e-05, elementwise_affine=True)
            (norm3): LayerNorm((128,), eps=1e-05, elementwise_affine=True)
            (dropout1): Dropout(p=0.1, inplace=False)
            (dropout2): Dropout(p=0.1, inplace=False)
            (dropout3): Dropout(p=0.1, inplace=False)
          )
          (5): TransformerDecoderLayer(
            (self_attn): MultiheadAttention(
              (out_proj): _LinearWithBias(in_features=128, out_features=128, bias=True)
            )
            (multihead_attn): MultiheadAttention(
              (out_proj): _LinearWithBias(in_features=128, out_features=128, bias=True)
            )
            (linear1): Linear(in_features=128, out_features=128, bias=True)
            (dropout): Dropout(p=0.1, inplace=False)
            (linear2): Linear(in_features=128, out_features=128, bias=True)
            (norm1): LayerNorm((128,), eps=1e-05, elementwise_affine=True)
            (norm2): LayerNorm((128,), eps=1e-05, elementwise_affine=True)
            (norm3): LayerNorm((128,), eps=1e-05, elementwise_affine=True)
            (dropout1): Dropout(p=0.1, inplace=False)
            (dropout2): Dropout(p=0.1, inplace=False)
            (dropout3): Dropout(p=0.1, inplace=False)
          )
        )
        (norm): LayerNorm((128,), eps=1e-05, elementwise_affine=True)
      )
    )
    (embedding_out): Embedding(13, 128)
    (classifier_out): Linear(in_features=128, out_features=13, bias=True)
  )
)
Curriculum: [(0, 1), (1, 3), (20, 7), (40, 11), (60, 15), (80, inf)]
------------------------------
Epoch 0/999 (max_len=1, data=1000, lr=0.001)
Train acc: 1.15, loss: 1.703 
Epoch time: 0m 2s
------------------------------
Epoch 1/999 (max_len=3, data=2170, lr=0.001)
Train acc: 45.31, loss: 1.138 
Epoch time: 0m 3s
------------------------------
Epoch 2/999 (max_len=3, data=2170, lr=0.001)
…
